…
                                     validation_metrics: 
                                     windows: False
                                     world_size: 1
INFO - 07/18/22 17:55:24 - 0:00:00 - The experiment will be stored in ./debug/6s1tkzdd5b
                                     
INFO - 07/18/22 17:55:24 - 0:00:00 - Running command: python train.py --cpu True

INFO - 07/18/22 17:55:24 - 0:00:00 - vocabulary: 10011 input words, 51 output_words
INFO - 07/18/22 17:55:24 - 0:00:00 - Training tasks: recurrence
DEBUG - 07/18/22 17:55:24 - 0:00:00 - TransformerModel(
                                        (position_embeddings): Embedding(4096, 128)
                                        (embeddings): Embedding(10011, 128, padding_idx=44)
                                        (layer_norm_emb): LayerNorm((128,), eps=1e-12, elementwise_affine=True)
                                        (attentions): ModuleList(
                                          (0): MultiHeadAttention(
                                            (q_lin): Linear(in_features=128, out_features=128, bias=True)
                                            (k_lin): Linear(in_features=128, out_features=128, bias=True)
                                            (v_lin): Linear(in_features=128, out_features=128, bias=True)
                                            (out_lin): Linear(in_features=128, out_features=128, bias=True)
                                          )
                                          (1): MultiHeadAttention(
                                            (q_lin): Linear(in_features=128, out_features=128, bias=True)
                                            (k_lin): Linear(in_features=128, out_features=128, bias=True)
                                            (v_lin): Linear(in_features=128, out_features=128, bias=True)
                                            (out_lin): Linear(in_features=128, out_features=128, bias=True)
                                          )
                                        )
                                        (layer_norm1): ModuleList(
                                          (0): LayerNorm((128,), eps=1e-12, elementwise_affine=True)
                                          (1): LayerNorm((128,), eps=1e-12, elementwise_affine=True)
                                        )
                                        (ffns): ModuleList(
                                          (0): TransformerFFN(
                                            (midlin): ModuleList()
                                            (lin1): Linear(in_features=128, out_features=512, bias=True)
                                            (lin2): Linear(in_features=512, out_features=128, bias=True)
                                          )
                                          (1): TransformerFFN(
                                            (midlin): ModuleList()
                                            (lin1): Linear(in_features=128, out_features=512, bias=True)
                                            (lin2): Linear(in_features=512, out_features=128, bias=True)
                                          )
                                        )
                                        (layer_norm2): ModuleList(
                                          (0): LayerNorm((128,), eps=1e-12, elementwise_affine=True)
                                          (1): LayerNorm((128,), eps=1e-12, elementwise_affine=True)
                                        )
                                      ): TransformerModel(
                                        (position_embeddings): Embedding(4096, 128)
                                        (embeddings): Embedding(10011, 128, padding_idx=44)
                                        (layer_norm_emb): LayerNorm((128,), eps=1e-12, elementwise_affine=True)
                                        (attentions): ModuleList(
                                          (0): MultiHeadAttention(
                                            (q_lin): Linear(in_features=128, out_features=128, bias=True)
                                            (k_lin): Linear(in_features=128, out_features=128, bias=True)
                                            (v_lin): Linear(in_features=128, out_features=128, bias=True)
                                            (out_lin): Linear(in_features=128, out_features=128, bias=True)
                                          )
                                          (1): MultiHeadAttention(
                                            (q_lin): Linear(in_features=128, out_features=128, bias=True)
                                            (k_lin): Linear(in_features=128, out_features=128, bias=True)
                                            (v_lin): Linear(in_features=128, out_features=128, bias=True)
                                            (out_lin): Linear(in_features=128, out_features=128, bias=True)
                                          )
                                        )
                                        (layer_norm1): ModuleList(
                                          (0): LayerNorm((128,), eps=1e-12, elementwise_affine=True)
                                          (1): LayerNorm((128,), eps=1e-12, elementwise_affine=True)
                                        )
                                        (ffns): ModuleList(
                                          (0): TransformerFFN(
                                            (midlin): ModuleList()
                                            (lin1): Linear(in_features=128, out_features=512, bias=True)
                                            (lin2): Linear(in_features=512, out_features=128, bias=True)
                                          )
                                          (1): TransformerFFN(
                                            (midlin): ModuleList()
                                            (lin1): Linear(in_features=128, out_features=512, bias=True)
                                            (lin2): Linear(in_features=512, out_features=128, bias=True)
                                          )
                                        )
                                        (layer_norm2): ModuleList(
                                          (0): LayerNorm((128,), eps=1e-12, elementwise_affine=True)
                                          (1): LayerNorm((128,), eps=1e-12, elementwise_affine=True)
                                        )
                                      )
DEBUG - 07/18/22 17:55:24 - 0:00:00 - TransformerModel(
                                        (position_embeddings): Embedding(4096, 128)
                                        (embeddings): Embedding(51, 128, padding_idx=44)
                                        (layer_norm_emb): LayerNorm((128,), eps=1e-12, elementwise_affine=True)
                                        (attentions): ModuleList(
                                          (0): MultiHeadAttention(
                                            (q_lin): Linear(in_features=128, out_features=128, bias=True)
                                            (k_lin): Linear(in_features=128, out_features=128, bias=True)
                                            (v_lin): Linear(in_features=128, out_features=128, bias=True)
                                            (out_lin): Linear(in_features=128, out_features=128, bias=True)
                                          )
                                          (1): MultiHeadAttention(
                                            (q_lin): Linear(in_features=128, out_features=128, bias=True)
                                            (k_lin): Linear(in_features=128, out_features=128, bias=True)
                                            (v_lin): Linear(in_features=128, out_features=128, bias=True)
                                            (out_lin): Linear(in_features=128, out_features=128, bias=True)
                                          )
                                        )
                                        (layer_norm1): ModuleList(
                                          (0): LayerNorm((128,), eps=1e-12, elementwise_affine=True)
                                          (1): LayerNorm((128,), eps=1e-12, elementwise_affine=True)
                                        )
                                        (ffns): ModuleList(
                                          (0): TransformerFFN(
                                            (midlin): ModuleList()
                                            (lin1): Linear(in_features=128, out_features=512, bias=True)
                                            (lin2): Linear(in_features=512, out_features=128, bias=True)
                                          )
                                          (1): TransformerFFN(
                                            (midlin): ModuleList()
                                            (lin1): Linear(in_features=128, out_features=512, bias=True)
                                            (lin2): Linear(in_features=512, out_features=128, bias=True)
                                          )
                                        )
                                        (layer_norm2): ModuleList(
                                          (0): LayerNorm((128,), eps=1e-12, elementwise_affine=True)
                                          (1): LayerNorm((128,), eps=1e-12, elementwise_affine=True)
                                        )
                                        (layer_norm15): ModuleList(
                                          (0): LayerNorm((128,), eps=1e-12, elementwise_affine=True)
                                          (1): LayerNorm((128,), eps=1e-12, elementwise_affine=True)
                                        )
                                        (encoder_attn): ModuleList(
                                          (0): MultiHeadAttention(
                                            (q_lin): Linear(in_features=128, out_features=128, bias=True)
                                            (k_lin): Linear(in_features=128, out_features=128, bias=True)
                                            (v_lin): Linear(in_features=128, out_features=128, bias=True)
                                            (out_lin): Linear(in_features=128, out_features=128, bias=True)
                                          )
                                          (1): MultiHeadAttention(
                                            (q_lin): Linear(in_features=128, out_features=128, bias=True)
                                            (k_lin): Linear(in_features=128, out_features=128, bias=True)
                                            (v_lin): Linear(in_features=128, out_features=128, bias=True)
                                            (out_lin): Linear(in_features=128, out_features=128, bias=True)
                                          )
                                        )
                                        (proj): Linear(in_features=128, out_features=51, bias=True)
                                      ): TransformerModel(
                                        (position_embeddings): Embedding(4096, 128)
                                        (embeddings): Embedding(51, 128, padding_idx=44)
                                        (layer_norm_emb): LayerNorm((128,), eps=1e-12, elementwise_affine=True)
                                        (attentions): ModuleList(
                                          (0): MultiHeadAttention(
                                            (q_lin): Linear(in_features=128, out_features=128, bias=True)
                                            (k_lin): Linear(in_features=128, out_features=128, bias=True)
                                            (v_lin): Linear(in_features=128, out_features=128, bias=True)
                                            (out_lin): Linear(in_features=128, out_features=128, bias=True)
                                          )
                                          (1): MultiHeadAttention(
                                            (q_lin): Linear(in_features=128, out_features=128, bias=True)
                                            (k_lin): Linear(in_features=128, out_features=128, bias=True)
                                            (v_lin): Linear(in_features=128, out_features=128, bias=True)
                                            (out_lin): Linear(in_features=128, out_features=128, bias=True)
                                          )
                                        )
                                        (layer_norm1): ModuleList(
                                          (0): LayerNorm((128,), eps=1e-12, elementwise_affine=True)
                                          (1): LayerNorm((128,), eps=1e-12, elementwise_affine=True)
                                        )
                                        (ffns): ModuleList(
                                          (0): TransformerFFN(
                                            (midlin): ModuleList()
                                            (lin1): Linear(in_features=128, out_features=512, bias=True)
                                            (lin2): Linear(in_features=512, out_features=128, bias=True)
                                          )
                                          (1): TransformerFFN(
                                            (midlin): ModuleList()
                                            (lin1): Linear(in_features=128, out_features=512, bias=True)
                                            (lin2): Linear(in_features=512, out_features=128, bias=True)
                                          )
                                        )
                                        (layer_norm2): ModuleList(
                                          (0): LayerNorm((128,), eps=1e-12, elementwise_affine=True)
                                          (1): LayerNorm((128,), eps=1e-12, elementwise_affine=True)
                                        )
                                        (layer_norm15): ModuleList(
                                          (0): LayerNorm((128,), eps=1e-12, elementwise_affine=True)
                                          (1): LayerNorm((128,), eps=1e-12, elementwise_affine=True)
                                        )
                                        (encoder_attn): ModuleList(
                                          (0): MultiHeadAttention(
                                            (q_lin): Linear(in_features=128, out_features=128, bias=True)
                                            (k_lin): Linear(in_features=128, out_features=128, bias=True)
                                            (v_lin): Linear(in_features=128, out_features=128, bias=True)
                                            (out_lin): Linear(in_features=128, out_features=128, bias=True)
                                          )
                                          (1): MultiHeadAttention(
                                            (q_lin): Linear(in_features=128, out_features=128, bias=True)
                                            (k_lin): Linear(in_features=128, out_features=128, bias=True)
                                            (v_lin): Linear(in_features=128, out_features=128, bias=True)
                                            (out_lin): Linear(in_features=128, out_features=128, bias=True)
                                          )
                                        )
                                        (proj): Linear(in_features=128, out_features=51, bias=True)
                                      )
INFO - 07/18/22 17:55:24 - 0:00:00 - Number of parameters (encoder): 2202496
INFO - 07/18/22 17:55:24 - 0:00:00 - Number of parameters (decoder): 1060275
INFO - 07/18/22 17:55:24 - 0:00:00 - Found 93 parameters in model.
INFO - 07/18/22 17:55:24 - 0:00:00 - Optimizer: <class 'src.optim.AdamInverseSqrtWithWarmup'>
INFO - 07/18/22 17:55:24 - 0:00:00 - Creating train iterator for recurrence ...
…
